----------------------------------------------------------------
        Layer (type)               Output Shape         Param #
================================================================
            Conv2d-1         [-1, 64, 128, 128]             576
       BatchNorm2d-2         [-1, 64, 128, 128]             128
             PReLU-3         [-1, 64, 128, 128]              64
         MaxPool2d-4           [-1, 64, 64, 64]               0
       BatchNorm2d-5         [-1, 64, 128, 128]             128
            Conv2d-6         [-1, 64, 128, 128]          36,864
             PReLU-7         [-1, 64, 128, 128]              64
            Conv2d-8           [-1, 64, 64, 64]          36,864
       BatchNorm2d-9           [-1, 64, 64, 64]             128
AdaptiveAvgPool2d-10             [-1, 64, 1, 1]               0
           Conv2d-11              [-1, 4, 1, 1]             256
             ReLU-12              [-1, 4, 1, 1]               0
           Conv2d-13             [-1, 64, 1, 1]             256
          Sigmoid-14             [-1, 64, 1, 1]               0
           SEConv-15           [-1, 64, 64, 64]               0
             IRSE-16           [-1, 64, 64, 64]               0
        MaxPool2d-17           [-1, 64, 64, 64]               0
      BatchNorm2d-18           [-1, 64, 64, 64]             128
           Conv2d-19           [-1, 64, 64, 64]          36,864
            PReLU-20           [-1, 64, 64, 64]              64
           Conv2d-21           [-1, 64, 64, 64]          36,864
      BatchNorm2d-22           [-1, 64, 64, 64]             128
AdaptiveAvgPool2d-23             [-1, 64, 1, 1]               0
           Conv2d-24              [-1, 4, 1, 1]             256
             ReLU-25              [-1, 4, 1, 1]               0
           Conv2d-26             [-1, 64, 1, 1]             256
          Sigmoid-27             [-1, 64, 1, 1]               0
           SEConv-28           [-1, 64, 64, 64]               0
             IRSE-29           [-1, 64, 64, 64]               0
        MaxPool2d-30           [-1, 64, 64, 64]               0
      BatchNorm2d-31           [-1, 64, 64, 64]             128
           Conv2d-32           [-1, 64, 64, 64]          36,864
            PReLU-33           [-1, 64, 64, 64]              64
           Conv2d-34           [-1, 64, 64, 64]          36,864
      BatchNorm2d-35           [-1, 64, 64, 64]             128
AdaptiveAvgPool2d-36             [-1, 64, 1, 1]               0
           Conv2d-37              [-1, 4, 1, 1]             256
             ReLU-38              [-1, 4, 1, 1]               0
           Conv2d-39             [-1, 64, 1, 1]             256
          Sigmoid-40             [-1, 64, 1, 1]               0
           SEConv-41           [-1, 64, 64, 64]               0
             IRSE-42           [-1, 64, 64, 64]               0
           Conv2d-43          [-1, 128, 32, 32]           8,192
      BatchNorm2d-44          [-1, 128, 32, 32]             256
      BatchNorm2d-45           [-1, 64, 64, 64]             128
           Conv2d-46          [-1, 128, 64, 64]          73,728
            PReLU-47          [-1, 128, 64, 64]             128
           Conv2d-48          [-1, 128, 32, 32]         147,456
      BatchNorm2d-49          [-1, 128, 32, 32]             256
AdaptiveAvgPool2d-50            [-1, 128, 1, 1]               0
           Conv2d-51              [-1, 8, 1, 1]           1,024
             ReLU-52              [-1, 8, 1, 1]               0
           Conv2d-53            [-1, 128, 1, 1]           1,024
          Sigmoid-54            [-1, 128, 1, 1]               0
           SEConv-55          [-1, 128, 32, 32]               0
             IRSE-56          [-1, 128, 32, 32]               0
        MaxPool2d-57          [-1, 128, 32, 32]               0
      BatchNorm2d-58          [-1, 128, 32, 32]             256
           Conv2d-59          [-1, 128, 32, 32]         147,456
            PReLU-60          [-1, 128, 32, 32]             128
           Conv2d-61          [-1, 128, 32, 32]         147,456
      BatchNorm2d-62          [-1, 128, 32, 32]             256
AdaptiveAvgPool2d-63            [-1, 128, 1, 1]               0
           Conv2d-64              [-1, 8, 1, 1]           1,024
             ReLU-65              [-1, 8, 1, 1]               0
           Conv2d-66            [-1, 128, 1, 1]           1,024
          Sigmoid-67            [-1, 128, 1, 1]               0
           SEConv-68          [-1, 128, 32, 32]               0
             IRSE-69          [-1, 128, 32, 32]               0
        MaxPool2d-70          [-1, 128, 32, 32]               0
      BatchNorm2d-71          [-1, 128, 32, 32]             256
           Conv2d-72          [-1, 128, 32, 32]         147,456
            PReLU-73          [-1, 128, 32, 32]             128
           Conv2d-74          [-1, 128, 32, 32]         147,456
      BatchNorm2d-75          [-1, 128, 32, 32]             256
AdaptiveAvgPool2d-76            [-1, 128, 1, 1]               0
           Conv2d-77              [-1, 8, 1, 1]           1,024
             ReLU-78              [-1, 8, 1, 1]               0
           Conv2d-79            [-1, 128, 1, 1]           1,024
          Sigmoid-80            [-1, 128, 1, 1]               0
           SEConv-81          [-1, 128, 32, 32]               0
             IRSE-82          [-1, 128, 32, 32]               0
        MaxPool2d-83          [-1, 128, 32, 32]               0
      BatchNorm2d-84          [-1, 128, 32, 32]             256
           Conv2d-85          [-1, 128, 32, 32]         147,456
            PReLU-86          [-1, 128, 32, 32]             128
           Conv2d-87          [-1, 128, 32, 32]         147,456
      BatchNorm2d-88          [-1, 128, 32, 32]             256
AdaptiveAvgPool2d-89            [-1, 128, 1, 1]               0
           Conv2d-90              [-1, 8, 1, 1]           1,024
             ReLU-91              [-1, 8, 1, 1]               0
           Conv2d-92            [-1, 128, 1, 1]           1,024
          Sigmoid-93            [-1, 128, 1, 1]               0
           SEConv-94          [-1, 128, 32, 32]               0
             IRSE-95          [-1, 128, 32, 32]               0
           Conv2d-96          [-1, 256, 16, 16]          32,768
      BatchNorm2d-97          [-1, 256, 16, 16]             512
      BatchNorm2d-98          [-1, 128, 32, 32]             256
           Conv2d-99          [-1, 256, 32, 32]         294,912
           PReLU-100          [-1, 256, 32, 32]             256
          Conv2d-101          [-1, 256, 16, 16]         589,824
     BatchNorm2d-102          [-1, 256, 16, 16]             512
AdaptiveAvgPool2d-103            [-1, 256, 1, 1]               0
          Conv2d-104             [-1, 16, 1, 1]           4,096
            ReLU-105             [-1, 16, 1, 1]               0
          Conv2d-106            [-1, 256, 1, 1]           4,096
         Sigmoid-107            [-1, 256, 1, 1]               0
          SEConv-108          [-1, 256, 16, 16]               0
            IRSE-109          [-1, 256, 16, 16]               0
       MaxPool2d-110          [-1, 256, 16, 16]               0
     BatchNorm2d-111          [-1, 256, 16, 16]             512
          Conv2d-112          [-1, 256, 16, 16]         589,824
           PReLU-113          [-1, 256, 16, 16]             256
          Conv2d-114          [-1, 256, 16, 16]         589,824
     BatchNorm2d-115          [-1, 256, 16, 16]             512
AdaptiveAvgPool2d-116            [-1, 256, 1, 1]               0
          Conv2d-117             [-1, 16, 1, 1]           4,096
            ReLU-118             [-1, 16, 1, 1]               0
          Conv2d-119            [-1, 256, 1, 1]           4,096
         Sigmoid-120            [-1, 256, 1, 1]               0
          SEConv-121          [-1, 256, 16, 16]               0
            IRSE-122          [-1, 256, 16, 16]               0
       MaxPool2d-123          [-1, 256, 16, 16]               0
     BatchNorm2d-124          [-1, 256, 16, 16]             512
          Conv2d-125          [-1, 256, 16, 16]         589,824
           PReLU-126          [-1, 256, 16, 16]             256
          Conv2d-127          [-1, 256, 16, 16]         589,824
     BatchNorm2d-128          [-1, 256, 16, 16]             512
AdaptiveAvgPool2d-129            [-1, 256, 1, 1]               0
          Conv2d-130             [-1, 16, 1, 1]           4,096
            ReLU-131             [-1, 16, 1, 1]               0
          Conv2d-132            [-1, 256, 1, 1]           4,096
         Sigmoid-133            [-1, 256, 1, 1]               0
          SEConv-134          [-1, 256, 16, 16]               0
            IRSE-135          [-1, 256, 16, 16]               0
       MaxPool2d-136          [-1, 256, 16, 16]               0
     BatchNorm2d-137          [-1, 256, 16, 16]             512
          Conv2d-138          [-1, 256, 16, 16]         589,824
           PReLU-139          [-1, 256, 16, 16]             256
          Conv2d-140          [-1, 256, 16, 16]         589,824
     BatchNorm2d-141          [-1, 256, 16, 16]             512
AdaptiveAvgPool2d-142            [-1, 256, 1, 1]               0
          Conv2d-143             [-1, 16, 1, 1]           4,096
            ReLU-144             [-1, 16, 1, 1]               0
          Conv2d-145            [-1, 256, 1, 1]           4,096
         Sigmoid-146            [-1, 256, 1, 1]               0
          SEConv-147          [-1, 256, 16, 16]               0
            IRSE-148          [-1, 256, 16, 16]               0
       MaxPool2d-149          [-1, 256, 16, 16]               0
     BatchNorm2d-150          [-1, 256, 16, 16]             512
          Conv2d-151          [-1, 256, 16, 16]         589,824
           PReLU-152          [-1, 256, 16, 16]             256
          Conv2d-153          [-1, 256, 16, 16]         589,824
     BatchNorm2d-154          [-1, 256, 16, 16]             512
AdaptiveAvgPool2d-155            [-1, 256, 1, 1]               0
          Conv2d-156             [-1, 16, 1, 1]           4,096
            ReLU-157             [-1, 16, 1, 1]               0
          Conv2d-158            [-1, 256, 1, 1]           4,096
         Sigmoid-159            [-1, 256, 1, 1]               0
          SEConv-160          [-1, 256, 16, 16]               0
            IRSE-161          [-1, 256, 16, 16]               0
       MaxPool2d-162          [-1, 256, 16, 16]               0
     BatchNorm2d-163          [-1, 256, 16, 16]             512
          Conv2d-164          [-1, 256, 16, 16]         589,824
           PReLU-165          [-1, 256, 16, 16]             256
          Conv2d-166          [-1, 256, 16, 16]         589,824
     BatchNorm2d-167          [-1, 256, 16, 16]             512
AdaptiveAvgPool2d-168            [-1, 256, 1, 1]               0
          Conv2d-169             [-1, 16, 1, 1]           4,096
            ReLU-170             [-1, 16, 1, 1]               0
          Conv2d-171            [-1, 256, 1, 1]           4,096
         Sigmoid-172            [-1, 256, 1, 1]               0
          SEConv-173          [-1, 256, 16, 16]               0
            IRSE-174          [-1, 256, 16, 16]               0
       MaxPool2d-175          [-1, 256, 16, 16]               0
     BatchNorm2d-176          [-1, 256, 16, 16]             512
          Conv2d-177          [-1, 256, 16, 16]         589,824
           PReLU-178          [-1, 256, 16, 16]             256
          Conv2d-179          [-1, 256, 16, 16]         589,824
     BatchNorm2d-180          [-1, 256, 16, 16]             512
AdaptiveAvgPool2d-181            [-1, 256, 1, 1]               0
          Conv2d-182             [-1, 16, 1, 1]           4,096
            ReLU-183             [-1, 16, 1, 1]               0
          Conv2d-184            [-1, 256, 1, 1]           4,096
         Sigmoid-185            [-1, 256, 1, 1]               0
          SEConv-186          [-1, 256, 16, 16]               0
            IRSE-187          [-1, 256, 16, 16]               0
       MaxPool2d-188          [-1, 256, 16, 16]               0
     BatchNorm2d-189          [-1, 256, 16, 16]             512
          Conv2d-190          [-1, 256, 16, 16]         589,824
           PReLU-191          [-1, 256, 16, 16]             256
          Conv2d-192          [-1, 256, 16, 16]         589,824
     BatchNorm2d-193          [-1, 256, 16, 16]             512
AdaptiveAvgPool2d-194            [-1, 256, 1, 1]               0
          Conv2d-195             [-1, 16, 1, 1]           4,096
            ReLU-196             [-1, 16, 1, 1]               0
          Conv2d-197            [-1, 256, 1, 1]           4,096
         Sigmoid-198            [-1, 256, 1, 1]               0
          SEConv-199          [-1, 256, 16, 16]               0
            IRSE-200          [-1, 256, 16, 16]               0
       MaxPool2d-201          [-1, 256, 16, 16]               0
     BatchNorm2d-202          [-1, 256, 16, 16]             512
          Conv2d-203          [-1, 256, 16, 16]         589,824
           PReLU-204          [-1, 256, 16, 16]             256
          Conv2d-205          [-1, 256, 16, 16]         589,824
     BatchNorm2d-206          [-1, 256, 16, 16]             512
AdaptiveAvgPool2d-207            [-1, 256, 1, 1]               0
          Conv2d-208             [-1, 16, 1, 1]           4,096
            ReLU-209             [-1, 16, 1, 1]               0
          Conv2d-210            [-1, 256, 1, 1]           4,096
         Sigmoid-211            [-1, 256, 1, 1]               0
          SEConv-212          [-1, 256, 16, 16]               0
            IRSE-213          [-1, 256, 16, 16]               0
       MaxPool2d-214          [-1, 256, 16, 16]               0
     BatchNorm2d-215          [-1, 256, 16, 16]             512
          Conv2d-216          [-1, 256, 16, 16]         589,824
           PReLU-217          [-1, 256, 16, 16]             256
          Conv2d-218          [-1, 256, 16, 16]         589,824
     BatchNorm2d-219          [-1, 256, 16, 16]             512
AdaptiveAvgPool2d-220            [-1, 256, 1, 1]               0
          Conv2d-221             [-1, 16, 1, 1]           4,096
            ReLU-222             [-1, 16, 1, 1]               0
          Conv2d-223            [-1, 256, 1, 1]           4,096
         Sigmoid-224            [-1, 256, 1, 1]               0
          SEConv-225          [-1, 256, 16, 16]               0
            IRSE-226          [-1, 256, 16, 16]               0
       MaxPool2d-227          [-1, 256, 16, 16]               0
     BatchNorm2d-228          [-1, 256, 16, 16]             512
          Conv2d-229          [-1, 256, 16, 16]         589,824
           PReLU-230          [-1, 256, 16, 16]             256
          Conv2d-231          [-1, 256, 16, 16]         589,824
     BatchNorm2d-232          [-1, 256, 16, 16]             512
AdaptiveAvgPool2d-233            [-1, 256, 1, 1]               0
          Conv2d-234             [-1, 16, 1, 1]           4,096
            ReLU-235             [-1, 16, 1, 1]               0
          Conv2d-236            [-1, 256, 1, 1]           4,096
         Sigmoid-237            [-1, 256, 1, 1]               0
          SEConv-238          [-1, 256, 16, 16]               0
            IRSE-239          [-1, 256, 16, 16]               0
       MaxPool2d-240          [-1, 256, 16, 16]               0
     BatchNorm2d-241          [-1, 256, 16, 16]             512
          Conv2d-242          [-1, 256, 16, 16]         589,824
           PReLU-243          [-1, 256, 16, 16]             256
          Conv2d-244          [-1, 256, 16, 16]         589,824
     BatchNorm2d-245          [-1, 256, 16, 16]             512
AdaptiveAvgPool2d-246            [-1, 256, 1, 1]               0
          Conv2d-247             [-1, 16, 1, 1]           4,096
            ReLU-248             [-1, 16, 1, 1]               0
          Conv2d-249            [-1, 256, 1, 1]           4,096
         Sigmoid-250            [-1, 256, 1, 1]               0
          SEConv-251          [-1, 256, 16, 16]               0
            IRSE-252          [-1, 256, 16, 16]               0
       MaxPool2d-253          [-1, 256, 16, 16]               0
     BatchNorm2d-254          [-1, 256, 16, 16]             512
          Conv2d-255          [-1, 256, 16, 16]         589,824
           PReLU-256          [-1, 256, 16, 16]             256
          Conv2d-257          [-1, 256, 16, 16]         589,824
     BatchNorm2d-258          [-1, 256, 16, 16]             512
AdaptiveAvgPool2d-259            [-1, 256, 1, 1]               0
          Conv2d-260             [-1, 16, 1, 1]           4,096
            ReLU-261             [-1, 16, 1, 1]               0
          Conv2d-262            [-1, 256, 1, 1]           4,096
         Sigmoid-263            [-1, 256, 1, 1]               0
          SEConv-264          [-1, 256, 16, 16]               0
            IRSE-265          [-1, 256, 16, 16]               0
       MaxPool2d-266          [-1, 256, 16, 16]               0
     BatchNorm2d-267          [-1, 256, 16, 16]             512
          Conv2d-268          [-1, 256, 16, 16]         589,824
           PReLU-269          [-1, 256, 16, 16]             256
          Conv2d-270          [-1, 256, 16, 16]         589,824
     BatchNorm2d-271          [-1, 256, 16, 16]             512
AdaptiveAvgPool2d-272            [-1, 256, 1, 1]               0
          Conv2d-273             [-1, 16, 1, 1]           4,096
            ReLU-274             [-1, 16, 1, 1]               0
          Conv2d-275            [-1, 256, 1, 1]           4,096
         Sigmoid-276            [-1, 256, 1, 1]               0
          SEConv-277          [-1, 256, 16, 16]               0
            IRSE-278          [-1, 256, 16, 16]               0
          Conv2d-279            [-1, 512, 8, 8]         131,072
     BatchNorm2d-280            [-1, 512, 8, 8]           1,024
     BatchNorm2d-281          [-1, 256, 16, 16]             512
          Conv2d-282          [-1, 512, 16, 16]       1,179,648
           PReLU-283          [-1, 512, 16, 16]             512
          Conv2d-284            [-1, 512, 8, 8]       2,359,296
     BatchNorm2d-285            [-1, 512, 8, 8]           1,024
AdaptiveAvgPool2d-286            [-1, 512, 1, 1]               0
          Conv2d-287             [-1, 32, 1, 1]          16,384
            ReLU-288             [-1, 32, 1, 1]               0
          Conv2d-289            [-1, 512, 1, 1]          16,384
         Sigmoid-290            [-1, 512, 1, 1]               0
          SEConv-291            [-1, 512, 8, 8]               0
            IRSE-292            [-1, 512, 8, 8]               0
       MaxPool2d-293            [-1, 512, 8, 8]               0
     BatchNorm2d-294            [-1, 512, 8, 8]           1,024
          Conv2d-295            [-1, 512, 8, 8]       2,359,296
           PReLU-296            [-1, 512, 8, 8]             512
          Conv2d-297            [-1, 512, 8, 8]       2,359,296
     BatchNorm2d-298            [-1, 512, 8, 8]           1,024
AdaptiveAvgPool2d-299            [-1, 512, 1, 1]               0
          Conv2d-300             [-1, 32, 1, 1]          16,384
            ReLU-301             [-1, 32, 1, 1]               0
          Conv2d-302            [-1, 512, 1, 1]          16,384
         Sigmoid-303            [-1, 512, 1, 1]               0
          SEConv-304            [-1, 512, 8, 8]               0
            IRSE-305            [-1, 512, 8, 8]               0
       MaxPool2d-306            [-1, 512, 8, 8]               0
     BatchNorm2d-307            [-1, 512, 8, 8]           1,024
          Conv2d-308            [-1, 512, 8, 8]       2,359,296
           PReLU-309            [-1, 512, 8, 8]             512
          Conv2d-310            [-1, 512, 8, 8]       2,359,296
     BatchNorm2d-311            [-1, 512, 8, 8]           1,024
AdaptiveAvgPool2d-312            [-1, 512, 1, 1]               0
          Conv2d-313             [-1, 32, 1, 1]          16,384
            ReLU-314             [-1, 32, 1, 1]               0
          Conv2d-315            [-1, 512, 1, 1]          16,384
         Sigmoid-316            [-1, 512, 1, 1]               0
          SEConv-317            [-1, 512, 8, 8]               0
            IRSE-318            [-1, 512, 8, 8]               0
     BatchNorm2d-319            [-1, 512, 8, 8]           1,024
         Dropout-320            [-1, 512, 8, 8]               0
         Flatten-321                [-1, 32768]               0
          Linear-322                  [-1, 512]      16,777,728
     BatchNorm1d-323                  [-1, 512]           1,024
================================================================
Total params: 47,728,704
Trainable params: 47,728,704
Non-trainable params: 0
----------------------------------------------------------------
Input size (MB): 0.06
Forward/backward pass size (MB): 198.90
Params size (MB): 182.07
Estimated Total Size (MB): 381.03
----------------------------------------------------------------
