----------------------------------------------------------------
        Layer (type)               Output Shape         Param #
================================================================
            Conv2d-1         [64, 64, 128, 128]             576
       BatchNorm2d-2         [64, 64, 128, 128]             128
             PReLU-3         [64, 64, 128, 128]              64
         MaxPool2d-4           [64, 64, 64, 64]               0
       BatchNorm2d-5         [64, 64, 128, 128]             128
            Conv2d-6         [64, 64, 128, 128]          36,864
             PReLU-7         [64, 64, 128, 128]              64
            Conv2d-8           [64, 64, 64, 64]          36,864
       BatchNorm2d-9           [64, 64, 64, 64]             128
AdaptiveAvgPool2d-10             [64, 64, 1, 1]               0
           Conv2d-11              [64, 4, 1, 1]             256
             ReLU-12              [64, 4, 1, 1]               0
           Conv2d-13             [64, 64, 1, 1]             256
          Sigmoid-14             [64, 64, 1, 1]               0
           SEConv-15           [64, 64, 64, 64]               0
             IRSE-16           [64, 64, 64, 64]               0
        MaxPool2d-17           [64, 64, 64, 64]               0
      BatchNorm2d-18           [64, 64, 64, 64]             128
           Conv2d-19           [64, 64, 64, 64]          36,864
            PReLU-20           [64, 64, 64, 64]              64
           Conv2d-21           [64, 64, 64, 64]          36,864
      BatchNorm2d-22           [64, 64, 64, 64]             128
AdaptiveAvgPool2d-23             [64, 64, 1, 1]               0
           Conv2d-24              [64, 4, 1, 1]             256
             ReLU-25              [64, 4, 1, 1]               0
           Conv2d-26             [64, 64, 1, 1]             256
          Sigmoid-27             [64, 64, 1, 1]               0
           SEConv-28           [64, 64, 64, 64]               0
             IRSE-29           [64, 64, 64, 64]               0
        MaxPool2d-30           [64, 64, 64, 64]               0
      BatchNorm2d-31           [64, 64, 64, 64]             128
           Conv2d-32           [64, 64, 64, 64]          36,864
            PReLU-33           [64, 64, 64, 64]              64
           Conv2d-34           [64, 64, 64, 64]          36,864
      BatchNorm2d-35           [64, 64, 64, 64]             128
AdaptiveAvgPool2d-36             [64, 64, 1, 1]               0
           Conv2d-37              [64, 4, 1, 1]             256
             ReLU-38              [64, 4, 1, 1]               0
           Conv2d-39             [64, 64, 1, 1]             256
          Sigmoid-40             [64, 64, 1, 1]               0
           SEConv-41           [64, 64, 64, 64]               0
             IRSE-42           [64, 64, 64, 64]               0
           Conv2d-43          [64, 128, 32, 32]           8,192
      BatchNorm2d-44          [64, 128, 32, 32]             256
      BatchNorm2d-45           [64, 64, 64, 64]             128
           Conv2d-46          [64, 128, 64, 64]          73,728
            PReLU-47          [64, 128, 64, 64]             128
           Conv2d-48          [64, 128, 32, 32]         147,456
      BatchNorm2d-49          [64, 128, 32, 32]             256
AdaptiveAvgPool2d-50            [64, 128, 1, 1]               0
           Conv2d-51              [64, 8, 1, 1]           1,024
             ReLU-52              [64, 8, 1, 1]               0
           Conv2d-53            [64, 128, 1, 1]           1,024
          Sigmoid-54            [64, 128, 1, 1]               0
           SEConv-55          [64, 128, 32, 32]               0
             IRSE-56          [64, 128, 32, 32]               0
        MaxPool2d-57          [64, 128, 32, 32]               0
      BatchNorm2d-58          [64, 128, 32, 32]             256
           Conv2d-59          [64, 128, 32, 32]         147,456
            PReLU-60          [64, 128, 32, 32]             128
           Conv2d-61          [64, 128, 32, 32]         147,456
      BatchNorm2d-62          [64, 128, 32, 32]             256
AdaptiveAvgPool2d-63            [64, 128, 1, 1]               0
           Conv2d-64              [64, 8, 1, 1]           1,024
             ReLU-65              [64, 8, 1, 1]               0
           Conv2d-66            [64, 128, 1, 1]           1,024
          Sigmoid-67            [64, 128, 1, 1]               0
           SEConv-68          [64, 128, 32, 32]               0
             IRSE-69          [64, 128, 32, 32]               0
        MaxPool2d-70          [64, 128, 32, 32]               0
      BatchNorm2d-71          [64, 128, 32, 32]             256
           Conv2d-72          [64, 128, 32, 32]         147,456
            PReLU-73          [64, 128, 32, 32]             128
           Conv2d-74          [64, 128, 32, 32]         147,456
      BatchNorm2d-75          [64, 128, 32, 32]             256
AdaptiveAvgPool2d-76            [64, 128, 1, 1]               0
           Conv2d-77              [64, 8, 1, 1]           1,024
             ReLU-78              [64, 8, 1, 1]               0
           Conv2d-79            [64, 128, 1, 1]           1,024
          Sigmoid-80            [64, 128, 1, 1]               0
           SEConv-81          [64, 128, 32, 32]               0
             IRSE-82          [64, 128, 32, 32]               0
        MaxPool2d-83          [64, 128, 32, 32]               0
      BatchNorm2d-84          [64, 128, 32, 32]             256
           Conv2d-85          [64, 128, 32, 32]         147,456
            PReLU-86          [64, 128, 32, 32]             128
           Conv2d-87          [64, 128, 32, 32]         147,456
      BatchNorm2d-88          [64, 128, 32, 32]             256
AdaptiveAvgPool2d-89            [64, 128, 1, 1]               0
           Conv2d-90              [64, 8, 1, 1]           1,024
             ReLU-91              [64, 8, 1, 1]               0
           Conv2d-92            [64, 128, 1, 1]           1,024
          Sigmoid-93            [64, 128, 1, 1]               0
           SEConv-94          [64, 128, 32, 32]               0
             IRSE-95          [64, 128, 32, 32]               0
           Conv2d-96          [64, 256, 16, 16]          32,768
      BatchNorm2d-97          [64, 256, 16, 16]             512
      BatchNorm2d-98          [64, 128, 32, 32]             256
           Conv2d-99          [64, 256, 32, 32]         294,912
           PReLU-100          [64, 256, 32, 32]             256
          Conv2d-101          [64, 256, 16, 16]         589,824
     BatchNorm2d-102          [64, 256, 16, 16]             512
AdaptiveAvgPool2d-103            [64, 256, 1, 1]               0
          Conv2d-104             [64, 16, 1, 1]           4,096
            ReLU-105             [64, 16, 1, 1]               0
          Conv2d-106            [64, 256, 1, 1]           4,096
         Sigmoid-107            [64, 256, 1, 1]               0
          SEConv-108          [64, 256, 16, 16]               0
            IRSE-109          [64, 256, 16, 16]               0
       MaxPool2d-110          [64, 256, 16, 16]               0
     BatchNorm2d-111          [64, 256, 16, 16]             512
          Conv2d-112          [64, 256, 16, 16]         589,824
           PReLU-113          [64, 256, 16, 16]             256
          Conv2d-114          [64, 256, 16, 16]         589,824
     BatchNorm2d-115          [64, 256, 16, 16]             512
AdaptiveAvgPool2d-116            [64, 256, 1, 1]               0
          Conv2d-117             [64, 16, 1, 1]           4,096
            ReLU-118             [64, 16, 1, 1]               0
          Conv2d-119            [64, 256, 1, 1]           4,096
         Sigmoid-120            [64, 256, 1, 1]               0
          SEConv-121          [64, 256, 16, 16]               0
            IRSE-122          [64, 256, 16, 16]               0
       MaxPool2d-123          [64, 256, 16, 16]               0
     BatchNorm2d-124          [64, 256, 16, 16]             512
          Conv2d-125          [64, 256, 16, 16]         589,824
           PReLU-126          [64, 256, 16, 16]             256
          Conv2d-127          [64, 256, 16, 16]         589,824
     BatchNorm2d-128          [64, 256, 16, 16]             512
AdaptiveAvgPool2d-129            [64, 256, 1, 1]               0
          Conv2d-130             [64, 16, 1, 1]           4,096
            ReLU-131             [64, 16, 1, 1]               0
          Conv2d-132            [64, 256, 1, 1]           4,096
         Sigmoid-133            [64, 256, 1, 1]               0
          SEConv-134          [64, 256, 16, 16]               0
            IRSE-135          [64, 256, 16, 16]               0
       MaxPool2d-136          [64, 256, 16, 16]               0
     BatchNorm2d-137          [64, 256, 16, 16]             512
          Conv2d-138          [64, 256, 16, 16]         589,824
           PReLU-139          [64, 256, 16, 16]             256
          Conv2d-140          [64, 256, 16, 16]         589,824
     BatchNorm2d-141          [64, 256, 16, 16]             512
AdaptiveAvgPool2d-142            [64, 256, 1, 1]               0
          Conv2d-143             [64, 16, 1, 1]           4,096
            ReLU-144             [64, 16, 1, 1]               0
          Conv2d-145            [64, 256, 1, 1]           4,096
         Sigmoid-146            [64, 256, 1, 1]               0
          SEConv-147          [64, 256, 16, 16]               0
            IRSE-148          [64, 256, 16, 16]               0
       MaxPool2d-149          [64, 256, 16, 16]               0
     BatchNorm2d-150          [64, 256, 16, 16]             512
          Conv2d-151          [64, 256, 16, 16]         589,824
           PReLU-152          [64, 256, 16, 16]             256
          Conv2d-153          [64, 256, 16, 16]         589,824
     BatchNorm2d-154          [64, 256, 16, 16]             512
AdaptiveAvgPool2d-155            [64, 256, 1, 1]               0
          Conv2d-156             [64, 16, 1, 1]           4,096
            ReLU-157             [64, 16, 1, 1]               0
          Conv2d-158            [64, 256, 1, 1]           4,096
         Sigmoid-159            [64, 256, 1, 1]               0
          SEConv-160          [64, 256, 16, 16]               0
            IRSE-161          [64, 256, 16, 16]               0
       MaxPool2d-162          [64, 256, 16, 16]               0
     BatchNorm2d-163          [64, 256, 16, 16]             512
          Conv2d-164          [64, 256, 16, 16]         589,824
           PReLU-165          [64, 256, 16, 16]             256
          Conv2d-166          [64, 256, 16, 16]         589,824
     BatchNorm2d-167          [64, 256, 16, 16]             512
AdaptiveAvgPool2d-168            [64, 256, 1, 1]               0
          Conv2d-169             [64, 16, 1, 1]           4,096
            ReLU-170             [64, 16, 1, 1]               0
          Conv2d-171            [64, 256, 1, 1]           4,096
         Sigmoid-172            [64, 256, 1, 1]               0
          SEConv-173          [64, 256, 16, 16]               0
            IRSE-174          [64, 256, 16, 16]               0
       MaxPool2d-175          [64, 256, 16, 16]               0
     BatchNorm2d-176          [64, 256, 16, 16]             512
          Conv2d-177          [64, 256, 16, 16]         589,824
           PReLU-178          [64, 256, 16, 16]             256
          Conv2d-179          [64, 256, 16, 16]         589,824
     BatchNorm2d-180          [64, 256, 16, 16]             512
AdaptiveAvgPool2d-181            [64, 256, 1, 1]               0
          Conv2d-182             [64, 16, 1, 1]           4,096
            ReLU-183             [64, 16, 1, 1]               0
          Conv2d-184            [64, 256, 1, 1]           4,096
         Sigmoid-185            [64, 256, 1, 1]               0
          SEConv-186          [64, 256, 16, 16]               0
            IRSE-187          [64, 256, 16, 16]               0
       MaxPool2d-188          [64, 256, 16, 16]               0
     BatchNorm2d-189          [64, 256, 16, 16]             512
          Conv2d-190          [64, 256, 16, 16]         589,824
           PReLU-191          [64, 256, 16, 16]             256
          Conv2d-192          [64, 256, 16, 16]         589,824
     BatchNorm2d-193          [64, 256, 16, 16]             512
AdaptiveAvgPool2d-194            [64, 256, 1, 1]               0
          Conv2d-195             [64, 16, 1, 1]           4,096
            ReLU-196             [64, 16, 1, 1]               0
          Conv2d-197            [64, 256, 1, 1]           4,096
         Sigmoid-198            [64, 256, 1, 1]               0
          SEConv-199          [64, 256, 16, 16]               0
            IRSE-200          [64, 256, 16, 16]               0
       MaxPool2d-201          [64, 256, 16, 16]               0
     BatchNorm2d-202          [64, 256, 16, 16]             512
          Conv2d-203          [64, 256, 16, 16]         589,824
           PReLU-204          [64, 256, 16, 16]             256
          Conv2d-205          [64, 256, 16, 16]         589,824
     BatchNorm2d-206          [64, 256, 16, 16]             512
AdaptiveAvgPool2d-207            [64, 256, 1, 1]               0
          Conv2d-208             [64, 16, 1, 1]           4,096
            ReLU-209             [64, 16, 1, 1]               0
          Conv2d-210            [64, 256, 1, 1]           4,096
         Sigmoid-211            [64, 256, 1, 1]               0
          SEConv-212          [64, 256, 16, 16]               0
            IRSE-213          [64, 256, 16, 16]               0
       MaxPool2d-214          [64, 256, 16, 16]               0
     BatchNorm2d-215          [64, 256, 16, 16]             512
          Conv2d-216          [64, 256, 16, 16]         589,824
           PReLU-217          [64, 256, 16, 16]             256
          Conv2d-218          [64, 256, 16, 16]         589,824
     BatchNorm2d-219          [64, 256, 16, 16]             512
AdaptiveAvgPool2d-220            [64, 256, 1, 1]               0
          Conv2d-221             [64, 16, 1, 1]           4,096
            ReLU-222             [64, 16, 1, 1]               0
          Conv2d-223            [64, 256, 1, 1]           4,096
         Sigmoid-224            [64, 256, 1, 1]               0
          SEConv-225          [64, 256, 16, 16]               0
            IRSE-226          [64, 256, 16, 16]               0
       MaxPool2d-227          [64, 256, 16, 16]               0
     BatchNorm2d-228          [64, 256, 16, 16]             512
          Conv2d-229          [64, 256, 16, 16]         589,824
           PReLU-230          [64, 256, 16, 16]             256
          Conv2d-231          [64, 256, 16, 16]         589,824
     BatchNorm2d-232          [64, 256, 16, 16]             512
AdaptiveAvgPool2d-233            [64, 256, 1, 1]               0
          Conv2d-234             [64, 16, 1, 1]           4,096
            ReLU-235             [64, 16, 1, 1]               0
          Conv2d-236            [64, 256, 1, 1]           4,096
         Sigmoid-237            [64, 256, 1, 1]               0
          SEConv-238          [64, 256, 16, 16]               0
            IRSE-239          [64, 256, 16, 16]               0
       MaxPool2d-240          [64, 256, 16, 16]               0
     BatchNorm2d-241          [64, 256, 16, 16]             512
          Conv2d-242          [64, 256, 16, 16]         589,824
           PReLU-243          [64, 256, 16, 16]             256
          Conv2d-244          [64, 256, 16, 16]         589,824
     BatchNorm2d-245          [64, 256, 16, 16]             512
AdaptiveAvgPool2d-246            [64, 256, 1, 1]               0
          Conv2d-247             [64, 16, 1, 1]           4,096
            ReLU-248             [64, 16, 1, 1]               0
          Conv2d-249            [64, 256, 1, 1]           4,096
         Sigmoid-250            [64, 256, 1, 1]               0
          SEConv-251          [64, 256, 16, 16]               0
            IRSE-252          [64, 256, 16, 16]               0
       MaxPool2d-253          [64, 256, 16, 16]               0
     BatchNorm2d-254          [64, 256, 16, 16]             512
          Conv2d-255          [64, 256, 16, 16]         589,824
           PReLU-256          [64, 256, 16, 16]             256
          Conv2d-257          [64, 256, 16, 16]         589,824
     BatchNorm2d-258          [64, 256, 16, 16]             512
AdaptiveAvgPool2d-259            [64, 256, 1, 1]               0
          Conv2d-260             [64, 16, 1, 1]           4,096
            ReLU-261             [64, 16, 1, 1]               0
          Conv2d-262            [64, 256, 1, 1]           4,096
         Sigmoid-263            [64, 256, 1, 1]               0
          SEConv-264          [64, 256, 16, 16]               0
            IRSE-265          [64, 256, 16, 16]               0
       MaxPool2d-266          [64, 256, 16, 16]               0
     BatchNorm2d-267          [64, 256, 16, 16]             512
          Conv2d-268          [64, 256, 16, 16]         589,824
           PReLU-269          [64, 256, 16, 16]             256
          Conv2d-270          [64, 256, 16, 16]         589,824
     BatchNorm2d-271          [64, 256, 16, 16]             512
AdaptiveAvgPool2d-272            [64, 256, 1, 1]               0
          Conv2d-273             [64, 16, 1, 1]           4,096
            ReLU-274             [64, 16, 1, 1]               0
          Conv2d-275            [64, 256, 1, 1]           4,096
         Sigmoid-276            [64, 256, 1, 1]               0
          SEConv-277          [64, 256, 16, 16]               0
            IRSE-278          [64, 256, 16, 16]               0
          Conv2d-279            [64, 512, 8, 8]         131,072
     BatchNorm2d-280            [64, 512, 8, 8]           1,024
     BatchNorm2d-281          [64, 256, 16, 16]             512
          Conv2d-282          [64, 512, 16, 16]       1,179,648
           PReLU-283          [64, 512, 16, 16]             512
          Conv2d-284            [64, 512, 8, 8]       2,359,296
     BatchNorm2d-285            [64, 512, 8, 8]           1,024
AdaptiveAvgPool2d-286            [64, 512, 1, 1]               0
          Conv2d-287             [64, 32, 1, 1]          16,384
            ReLU-288             [64, 32, 1, 1]               0
          Conv2d-289            [64, 512, 1, 1]          16,384
         Sigmoid-290            [64, 512, 1, 1]               0
          SEConv-291            [64, 512, 8, 8]               0
            IRSE-292            [64, 512, 8, 8]               0
       MaxPool2d-293            [64, 512, 8, 8]               0
     BatchNorm2d-294            [64, 512, 8, 8]           1,024
          Conv2d-295            [64, 512, 8, 8]       2,359,296
           PReLU-296            [64, 512, 8, 8]             512
          Conv2d-297            [64, 512, 8, 8]       2,359,296
     BatchNorm2d-298            [64, 512, 8, 8]           1,024
AdaptiveAvgPool2d-299            [64, 512, 1, 1]               0
          Conv2d-300             [64, 32, 1, 1]          16,384
            ReLU-301             [64, 32, 1, 1]               0
          Conv2d-302            [64, 512, 1, 1]          16,384
         Sigmoid-303            [64, 512, 1, 1]               0
          SEConv-304            [64, 512, 8, 8]               0
            IRSE-305            [64, 512, 8, 8]               0
       MaxPool2d-306            [64, 512, 8, 8]               0
     BatchNorm2d-307            [64, 512, 8, 8]           1,024
          Conv2d-308            [64, 512, 8, 8]       2,359,296
           PReLU-309            [64, 512, 8, 8]             512
          Conv2d-310            [64, 512, 8, 8]       2,359,296
     BatchNorm2d-311            [64, 512, 8, 8]           1,024
AdaptiveAvgPool2d-312            [64, 512, 1, 1]               0
          Conv2d-313             [64, 32, 1, 1]          16,384
            ReLU-314             [64, 32, 1, 1]               0
          Conv2d-315            [64, 512, 1, 1]          16,384
         Sigmoid-316            [64, 512, 1, 1]               0
          SEConv-317            [64, 512, 8, 8]               0
            IRSE-318            [64, 512, 8, 8]               0
     BatchNorm2d-319            [64, 512, 8, 8]           1,024
         Dropout-320            [64, 512, 8, 8]               0
         Flatten-321                [64, 32768]               0
          Linear-322                  [64, 512]      16,777,728
     BatchNorm1d-323                  [64, 512]           1,024
================================================================
Total params: 47,728,704
Trainable params: 47,728,704
Non-trainable params: 0
----------------------------------------------------------------
Input size (MB): 4.00
Forward/backward pass size (MB): 12729.39
Params size (MB): 182.07
Estimated Total Size (MB): 12915.46
----------------------------------------------------------------
