----------------------------------------------------------------
        Layer (type)               Output Shape         Param #
================================================================
            Conv2d-1           [64, 64, 64, 64]           3,136
       BatchNorm2d-2           [64, 64, 64, 64]             128
              ReLU-3           [64, 64, 64, 64]               0
         MaxPool2d-4           [64, 64, 32, 32]               0
            Conv2d-5           [64, 64, 32, 32]          36,864
       BatchNorm2d-6           [64, 64, 32, 32]             128
              ReLU-7           [64, 64, 32, 32]               0
            Conv2d-8           [64, 64, 32, 32]          36,864
       BatchNorm2d-9           [64, 64, 32, 32]             128
             ReLU-10           [64, 64, 32, 32]               0
       BasicBlock-11           [64, 64, 32, 32]               0
           Conv2d-12           [64, 64, 32, 32]          36,864
      BatchNorm2d-13           [64, 64, 32, 32]             128
             ReLU-14           [64, 64, 32, 32]               0
           Conv2d-15           [64, 64, 32, 32]          36,864
      BatchNorm2d-16           [64, 64, 32, 32]             128
             ReLU-17           [64, 64, 32, 32]               0
       BasicBlock-18           [64, 64, 32, 32]               0
           Conv2d-19          [64, 128, 16, 16]          73,728
      BatchNorm2d-20          [64, 128, 16, 16]             256
             ReLU-21          [64, 128, 16, 16]               0
           Conv2d-22          [64, 128, 16, 16]         147,456
      BatchNorm2d-23          [64, 128, 16, 16]             256
           Conv2d-24          [64, 128, 16, 16]           8,192
      BatchNorm2d-25          [64, 128, 16, 16]             256
             ReLU-26          [64, 128, 16, 16]               0
       BasicBlock-27          [64, 128, 16, 16]               0
           Conv2d-28          [64, 128, 16, 16]         147,456
      BatchNorm2d-29          [64, 128, 16, 16]             256
             ReLU-30          [64, 128, 16, 16]               0
           Conv2d-31          [64, 128, 16, 16]         147,456
      BatchNorm2d-32          [64, 128, 16, 16]             256
             ReLU-33          [64, 128, 16, 16]               0
       BasicBlock-34          [64, 128, 16, 16]               0
           Conv2d-35            [64, 256, 8, 8]         294,912
      BatchNorm2d-36            [64, 256, 8, 8]             512
             ReLU-37            [64, 256, 8, 8]               0
           Conv2d-38            [64, 256, 8, 8]         589,824
      BatchNorm2d-39            [64, 256, 8, 8]             512
           Conv2d-40            [64, 256, 8, 8]          32,768
      BatchNorm2d-41            [64, 256, 8, 8]             512
             ReLU-42            [64, 256, 8, 8]               0
       BasicBlock-43            [64, 256, 8, 8]               0
           Conv2d-44            [64, 256, 8, 8]         589,824
      BatchNorm2d-45            [64, 256, 8, 8]             512
             ReLU-46            [64, 256, 8, 8]               0
           Conv2d-47            [64, 256, 8, 8]         589,824
      BatchNorm2d-48            [64, 256, 8, 8]             512
             ReLU-49            [64, 256, 8, 8]               0
       BasicBlock-50            [64, 256, 8, 8]               0
           Conv2d-51            [64, 512, 4, 4]       1,179,648
      BatchNorm2d-52            [64, 512, 4, 4]           1,024
             ReLU-53            [64, 512, 4, 4]               0
           Conv2d-54            [64, 512, 4, 4]       2,359,296
      BatchNorm2d-55            [64, 512, 4, 4]           1,024
           Conv2d-56            [64, 512, 4, 4]         131,072
      BatchNorm2d-57            [64, 512, 4, 4]           1,024
             ReLU-58            [64, 512, 4, 4]               0
       BasicBlock-59            [64, 512, 4, 4]               0
           Conv2d-60            [64, 512, 4, 4]       2,359,296
      BatchNorm2d-61            [64, 512, 4, 4]           1,024
             ReLU-62            [64, 512, 4, 4]               0
           Conv2d-63            [64, 512, 4, 4]       2,359,296
      BatchNorm2d-64            [64, 512, 4, 4]           1,024
             ReLU-65            [64, 512, 4, 4]               0
       BasicBlock-66            [64, 512, 4, 4]               0
AdaptiveAvgPool2d-67            [64, 512, 1, 1]               0
           Linear-68                  [64, 512]         262,656
      BatchNorm1d-69                  [64, 512]           1,024
================================================================
Total params: 11,433,920
Trainable params: 11,433,920
Non-trainable params: 0
----------------------------------------------------------------
Input size (MB): 4.00
Forward/backward pass size (MB): 1312.75
Params size (MB): 43.62
Estimated Total Size (MB): 1360.37
----------------------------------------------------------------
